resources/small_onnx_tests/2_80-1-0.1.onnx (onnx, 10829 bytes, 6 tensors)

0.bias f4 [40]
0	0xbf16df7d	-0.58934766
1	0x3ee8a52d	0.4543852
2	0xbee6baa4	-0.4506427
3	0x3e5704c6	0.20997915
4	0xbf29a5eb	-0.66268796
5	0x00000000	0.0
6	0x00000000	0.0
7	0x3e8fbe99	0.28075102
8	0xbf5b8871	-0.8575507
9	0xbf3d0263	-0.73831767
10	0xbe89bf5c	-0.26903808
11	0x3f2563c7	0.64605373
12	0x3f854262	1.0410883
13	0x3f1942d2	0.59867585
14	0xbf250ed2	-0.6447574
15	0xbec2afee	-0.3802485
16	0xbbb54913	-0.0055323928
17	0x3c575a8c	0.013144147
18	0x3cb06f4c	0.021537445
19	0xbf50f8c7	-0.81629604
20	0xbe26dee2	-0.1629596
21	0x3f77d19f	0.9680423
22	0x3e8ab595	0.2709166
23	0x3e30c4ba	0.17262545
24	0xbf7b2f16	-0.9811872
25	0x00000000	0.0
26	0x00000000	0.0
27	0x3e52f17a	0.20599928
28	0x3ea0c544	0.31400502
29	0x3ec3dc35	0.38253942
30	0x3f19e08e	0.6010827
31	0xbed8de61	-0.42357162
32	0xbf1b3952	-0.6063434
33	0x3ebfc422	0.37454325
34	0xbe1c91a2	-0.1528993
35	0xbed75374	-0.42055857
36	0x3d8b6c3c	0.068077534
37	0xbf6d6a2e	-0.9274014
38	0x3e6b9448	0.23005784
39	0x3ed57a91	0.41695073

2.bias f4 [40]
0	0x3e1a420d	0.15064259
1	0x3d811997	0.06303709
2	0xc0068f48	-2.1024952
3	0xbf9eabeb	-1.2396215
4	0x3f053daf	0.52047247
5	0x00000000	0.0
6	0xbec4a16d	-0.38404408
7	0x3e81b800	0.25335693
8	0xbf64101f	-0.890871
9	0x00000000	0.0
10	0xbf898661	-1.0744134
11	0x3f920b4f	1.1409701
12	0x3fd9bdc1	1.7011033
13	0xbfa3c036	-1.2793033
14	0x3f738a2a	0.95132697
15	0xbf853a45	-1.0408407
16	0x3f0bc6c0	0.54600143
17	0x3f23699f	0.6383304
18	0x401062e6	2.2560363
19	0xbf58e79e	-0.8472842
20	0x3f41c4c3	0.7569086
21	0x3fa70c12	1.3050559
22	0xbfd12b9c	-1.6341434
23	0xbdcfff51	-0.101561196
24	0x3f1655d9	0.58724743
25	0x3f95c5bd	1.170097
26	0x3f6bf4af	0.9217023
27	0x3f0851dd	0.53249913
28	0x00000000	0.0
29	0xbf8762b7	-1.0577
30	0x3f3cffd0	0.7382784
31	0xbde14e58	-0.11001271
32	0x3f55ff01	0.8359223
33	0xbf9853ed	-1.1900612
34	0x3fa11bed	1.2586647
35	0x3f624bed	0.88397104
36	0x3efb1817	0.49041817
37	0xbfa7a6bb	-1.3097757
38	0x00000000	0.0
39	0x3fba67e2	1.4562953

4.weight f4 [5, 40]
0	0x3eb88bd5	0.36044183
1	0xbd45c030	-0.048278987
2	0x3ee22894	0.44171584
3	0x3eb8b176	0.36072892
4	0x3e9d8c91	0.30771306
5	0x3e7da9e2	0.24771836
6	0x3e5ce892	0.21573094
7	0xbe93291e	-0.28742307
8	0x3f1c2684	0.6099627
9	0xbd7946e0	-0.060858607
10	0x3cf39ee2	0.029738847
11	0x3e262c85	0.1622792
12	0xbfbc19ee	-1.4695413
13	0x3e92acf7	0.28647587
14	0xbf05978f	-0.52184385
15	0x3e682847	0.22671615
16	0x3d6a2460	0.057163596
17	0xbf9f1bf2	-1.2430403
18	0xbee6c342	-0.45070845
19	0x3ed1d01d	0.4097909
20	0xbf0022e0	-0.50053215
21	0xbeee03f9	-0.46487406
22	0x3ec91c94	0.39279616
23	0x3ed4e76e	0.41582817
24	0xbdbec8b1	-0.093156226
25	0xbfe1a7fa	-1.7629387
26	0xbf3e1a05	-0.7425845
27	0x3ef7c116	0.483895
28	0x3e924583	0.28568658
29	0x3e9ea2b0	0.30983496
30	0x3ecfaa1d	0.40559474
31	0x3e5cdbe0	0.2156825
32	0xbee82f9d	-0.45348826
33	0xbff527f5	-1.9152819
34	0x3e429c35	0.19004901
35	0x3e84e227	0.2595379
36	0xbf4c0ea3	-0.79709834
37	0x3e4ce997	0.20010982
38	0xbf0b2476	-0.5435251
39	0x3e2fc060	0.17163229
40	0x3d892182	0.06695844
41	0x3f4db89e	0.8035983
42	0xbed8dcd6	-0.42355984
43	0xbff7d2a3	-1.9361156
44	0xbd977db0	-0.0739702
45	0xc00a4669	-2.1605475
46	0xbfebc762	-1.8420222
47	0x3e134c0d	0.1438448
48	0xc082b593	-4.084665
49	0x3ea79d6a	0.32737285
50	0xbf858e65	-1.043408
51	0x3e94faa7	0.29097483
52	0x3dc506e5	0.09620456
53	0xbf966ff0	-1.1752911
54	0x3f19779b	0.5994813
55	0xc03245ed	-2.785518
56	0x3effd986	0.49970645
57	0x3f2bf75f	0.67174333
58	0xbd23915e	-0.039933555
59	0xc02e17aa	-2.7201943
60	0x3f1fb178	0.6238017
61	0x3ce11637	0.027476413
62	0xbfa47038	-1.2846746
63	0x3dfcd5d5	0.12345473
64	0x3ab384a3	0.0013696145
65	0x3e42998d	0.19003887
66	0x3f431228	0.7619958
67	0xbf0d0c12	-0.5509654
68	0x3e295af7	0.16538607
69	0x3e66a936	0.22525486
70	0xbeb80117	-0.3593833
71	0xbfff4810	-1.9943867
72	0x3cf504d8	0.029909536
73	0x3e42b71a	0.1901516
74	0xbe1f36dc	-0.15548271
75	0x3d69e36b	0.05710165
76	0x3ec46d71	0.38364747
77	0x3dedbecd	0.11608658
78	0x3e7729d2	0.24137047
79	0xbde54fe2	-0.11196877
80	0xbef3ccea	-0.47617275
81	0xbf3d5538	-0.7395816
82	0x3f080b67	0.531424
83	0x3eb639a3	0.35590848
84	0xbdfbb5e8	-0.12290555
85	0x3e8775f6	0.26457185
86	0x3e3463f7	0.17616259
87	0x3f564af8	0.83708143
88	0x3e2b29db	0.16715185
89	0x3e55e6a3	0.20888762
90	0x3f8b1353	1.0865272
91	0xbf612664	-0.87949204
92	0x3f0922e9	0.53568894
93	0x3e84b765	0.2592117
94	0xbf3ad7b0	-0.72985363
95	0x3e96e7cf	0.2947373
96	0xbf88376a	-1.0641911
97	0xbddbc5a0	-0.10731053
98	0xbed731f8	-0.4203031
99	0x3eada4e0	0.33914852
100	0xbeec2abc	-0.46126354
101	0xbedd6656	-0.4324214
102	0x3ec1982c	0.3781141
103	0x3d6cd66c	0.057821676
104	0x3e10a901	0.1412697
105	0x3e555c1e	0.20835921
106	0xbf41005f	-0.7539119
107	0xbf347a15	-0.7049878
108	0xbf3ec1b2	-0.74514306
109	0xbf3cd62d	-0.73764306
110	0xbfd4a16d	-1.6611763
111	0x3e8d2402	0.27566534
112	0xbd85245f	-0.06501078
113	0x3f9c9eaa	1.223592
114	0x3f0b5a30	0.5443449
115	0xbf8bb272	-1.0913832
116	0xbc88154c	-0.016611718
117	0xbf4a10d6	-0.7893194
118	0x3e91ffe2	0.28515536
119	0x3f5a568a	0.852883
120	0x3ebd6142	0.36988264
121	0xbf659719	-0.8968368
122	0xc039dfd6	-2.9042869
123	0xbeb3a0fe	-0.35083765
124	0xbfdf50e6	-1.7446563
125	0x3e2da91b	0.1695904
126	0x3e82f390	0.25576448
127	0xbf895fe5	-1.073239
128	0xbf03ce3d	-0.5148657
129	0xc00b0682	-2.1722722
130	0xbfe88ad8	-1.8167372
131	0x3e4c925a	0.19977704
132	0x3ee0c763	0.4390212
133	0xbece334e	-0.40273517
134	0x3f44c48f	0.76862425
135	0xbf1333a6	-0.57500684
136	0xbf1c8684	-0.61142755
137	0x3ecf6b1e	0.4051141
138	0x3e167e13	0.14696531
139	0xbea169c3	-0.31526002
140	0x3ef68615	0.4814917
141	0x3e906052	0.28198487
142	0xbf32f3e2	-0.69903386
143	0x3e3bfdce	0.18358538
144	0x3e9fe82f	0.3123183
145	0x3ed60e1b	0.41807637
146	0x3eadd576	0.3395192
147	0x3e90ddaa	0.28294116
148	0x3da69602	0.081340805
149	0xbe2b81aa	-0.16748682
150	0xc009aaa4	-2.15104
151	0x3edd4d38	0.43222976
152	0x3e67e904	0.22647482
153	0x3dd851b5	0.105624594
154	0xc005497f	-2.0826108
155	0x3d0c16ba	0.03420136
156	0x3eb71cf9	0.35764292
157	0xbeb14588	-0.3462336
158	0x3edb480a	0.428284
159	0xc0122ab3	-2.2838562
160	0xbe4eef21	-0.20208408
161	0x3d76c131	0.060242835
162	0xbf237da8	-0.6386361
163	0xbe7285b7	-0.2368382
164	0x3e4ecf7d	0.20196338
165	0xbf6e5718	-0.93101645
166	0xc036cf2c	-2.8563948
167	0x3ea68202	0.32521063
168	0xc046dae0	-3.107109
169	0x3ec97ed3	0.39354572
170	0x3a669737	0.00087963365
171	0x3e750e97	0.23931347
172	0xbf7aabda	-0.97918475
173	0x3ccbf111	0.024895223
174	0xbf6f4331	-0.934619
175	0x3f5c1451	0.859685
176	0x3e9f4843	0.3110982
177	0xbf8a6647	-1.0812463
178	0x3f357223	0.70877284
179	0xbf795d10	-0.9740763
180	0xbff20472	-1.8907607
181	0x3e90a1e9	0.28248528
182	0xbf1c6a2c	-0.61099505
183	0xbf1f977e	-0.62340534
184	0xbfb7e358	-1.4366255
185	0xbe9a9b5b	-0.30196652
186	0xbd64538c	-0.05574374
187	0x3cceffd5	0.025268475
188	0x3e6cb582	0.23116115
189	0xbeeb140c	-0.45913732
190	0x3eb364f2	0.35037953
191	0xc0175b33	-2.3649414
192	0xbf410572	-0.75398934
193	0x3e2ffc02	0.17185977
194	0x3e9abff2	0.30224568
195	0x3dff29bf	0.12459134
196	0x3d6ff48b	0.058582824
197	0x3e3e60e4	0.18591648
198	0xbfaea0c8	-1.3642817
199	0x3ecfbbeb	0.40573058

4.bias f4 [5]
0	0xbeac4d2e	-0.33652633
1	0x401aa96c	2.4165907
2	0xbf57f6a9	-0.8436075
3	0xbfc82a04	-1.5637822
4	0x3ee76f70	0.45202208

onnx::Gemm_20 f4 [40, 16]
0	0xbecaaa1a	-0.39582902
1	0xbd27e2ae	-0.040987663
2	0xbed99e2a	-0.42503482
3	0x3f645158	0.8918662
4	0xbd93340c	-0.071876615
5	0xbdde5a82	-0.10857107
6	0x3d17c993	0.03705747
7	0x3ee70226	0.45118827
8	0x3e8e7dc8	0.27830338
9	0xbe782299	-0.24231948
10	0xbeefe123	-0.46851453
11	0xbf8b2a9a	-1.0872376
12	0xbed1c941	-0.40973857
13	0xbe130fe7	-0.14361535
14	0xbedd5fcd	-0.43237153
15	0x3e435de5	0.19078787
16	0x3e1ce11f	0.15320252
17	0x3e1e0741	0.15432455
18	0xbd01333b	-0.031542998
19	0xbf5609e3	-0.83608836
20	0x3e53dc3e	0.20689484
21	0xbece8fe5	-0.40344158
22	0x3e0e2ee7	0.1388508
23	0x3d95f6fa	0.07322498
24	0x3e44114d	0.19147225
25	0xbe7d15b9	-0.24715318
26	0x3e9fa1cc	0.3117813
27	0x3e1808f5	0.14847167
28	0x3ea2b28d	0.31776848
29	0xbe2f2b37	-0.17106329
30	0xbedff5d3	-0.43742236
31	0xbee1022c	-0.4394697
32	0x3e27b179	0.16376294
33	0xbdd891b7	-0.10574668
34	0x3f71d234	0.9446137
35	0x3ff7ccd8	1.9359388
36	0x3efe60aa	0.49683124
37	0x3e9b1e8d	0.30296746
38	0xbdb08845	-0.08619741
39	0xbe53cf50	-0.20684552
40	0x3d17fea2	0.03710807
41	0xbe9635ed	-0.29338017
42	0xbe5e505d	-0.21710344
43	0xbd7cb179	-0.06169269
44	0xbd6d7302	-0.057971008
45	0x3d732521	0.05936158
46	0xbf804171	-1.0019971
47	0x3e393c58	0.18089426
48	0x3f0ecd1b	0.55781716
49	0x3ed6f28f	0.41981933
50	0xbe9a1810	-0.30096483
51	0xbf8d9d32	-1.1063597
52	0x3e0b71d1	0.13617636
53	0x3e06b6af	0.13155626
54	0xbd78d536	-0.06075021
55	0xbd803cd8	-0.06261605
56	0x3d08f5ec	0.033437654
57	0xbe060862	-0.13089135
58	0xbe6f58c5	-0.23373707
59	0x3e57169b	0.21004717
60	0x3e09081a	0.13381997
61	0xbe01c931	-0.12674405
62	0x3f9856f9	1.1901542
63	0xbee28dce	-0.44248813
64	0x3f68683f	0.90784067
65	0x3dc1e1e3	0.094669126
66	0x3e8ba5b3	0.27274856
67	0xbd370ecc	-0.044691846
68	0x3e5d8578	0.21632946
69	0x3d302f84	0.043014064
70	0x3ec20aed	0.3789896
71	0x3e35723d	0.1771936
72	0x3df459c6	0.119311854
73	0xbeebf67c	-0.4608649
74	0xbe9abc6f	-0.30221888
75	0x3ed7a368	0.42116857
76	0xbd70dd75	-0.058804948
77	0x3daea678	0.08527845
78	0xbf6529b1	-0.8951674
79	0xbeda8c38	-0.42685103
80	0x80000000	-0.0
81	0x80000000	-0.0
82	0x80000000	-0.0
83	0x80000000	-0.0
84	0x80000000	-0.0
85	0x80000000	-0.0
86	0x80000000	-0.0
87	0x80000000	-0.0
88	0x80000000	-0.0
89	0x00000000	0.0
90	0x00000000	0.0
91	0x80000000	-0.0
92	0x00000000	0.0
93	0x80000000	-0.0
94	0x00000000	0.0
95	0x00000000	0.0
96	0x80000000	-0.0
97	0x00000000	0.0
98	0x80000000	-0.0
99	0x80000000	-0.0
100	0x80000000	-0.0
101	0x80000000	-0.0
102	0x80000000	-0.0
103	0x00000000	0.0
104	0x80000000	-0.0
105	0x00000000	0.0
106	0x80000000	-0.0
107	0x00000000	0.0
108	0x80000000	-0.0
109	0x00000000	0.0
110	0x00000000	0.0
111	0x80000000	-0.0
112	0x3e01a760	0.12661505
113	0x3d64075e	0.05567109
114	0x3f52fa01	0.82412726
115	0x3ea8c225	0.3296062
116	0x3ee0b282	0.4388619
117	0x3e6a3eaa	0.22875467
118	0xbd3e8432	-0.04651279
119	0x3e502fb5	0.20330699
120	0xbe5385a6	-0.20656452
121	0x3e2ba116	0.16760668
122	0x3e64c151	0.2233937
123	0x3f08ea19	0.53482205
124	0x3dcb8f8a	0.09939487
125	0x3f11a4e7	0.56892246
126	0xbf004770	-0.50109005
127	0xbf6acf37	-0.91722435
128	0x3e0cc19e	0.13745734
129	0x3d6d65cb	0.057958405
130	0x3d9d311d	0.07675383
131	0x3c1aa784	0.009439353
132	0x3e37365b	0.17891829
133	0x3e15b9f5	0.14621718
134	0xbea60f86	-0.32433718
135	0x3d9d281b	0.07673665
136	0xbead3ea8	-0.33836865
137	0x3f21d9d2	0.6322299
138	0x3e2ab7e5	0.16671713
139	0x3f387faa	0.720698
140	0xbe2baea7	-0.16765843
141	0x3c94faf5	0.018186072
142	0x3fbe6f7c	1.4877772
143	0xbf6f6ce8	-0.9352555
144	0x3da9f79d	0.082991816
145	0x3de7fb90	0.113272786
146	0xbf114efb	-0.5676114
147	0x3e86d204	0.26332104
148	0x3c490bdc	0.012270894
149	0xbf1a35e0	-0.60238457
150	0xbd6363a3	-0.055514943
151	0xbec95712	-0.39324242
152	0x3e403f7b	0.18774216
153	0xbe3881e1	-0.18018295
154	0x3bafd871	0.005366378
155	0xbecd120a	-0.40052825
156	0x3d9626fb	0.07331654
157	0xbe1ee418	-0.15516698
158	0x3fbc5829	1.4714404
159	0xbed0ceca	-0.40782768
160	0x3f61b7e7	0.8817124
161	0x3fb7c31a	1.4356415
162	0x3e072b6b	0.13200156
163	0xbd5700c0	-0.05249095
164	0x3ede252b	0.43387732
165	0x3deb953c	0.115030736
166	0x3ce1c6d5	0.02756063
167	0xbd50270f	-0.0508185
168	0xbde58d11	-0.11208547
169	0xbe3a5669	-0.18197025
170	0x3ed3eb07	0.4139025
171	0xbdf93726	-0.12168722
172	0x3dff6c02	0.12471773
173	0xbbd45503	-0.0064798607
174	0xbf1f0abe	-0.62125766
175	0x3d243e60	0.040098548
176	0x3ee8cff5	0.4547116
177	0x3e4b608c	0.19861048
178	0x3e3403b1	0.17579533
179	0x3f2c572a	0.673205
180	0x3f0844f4	0.53230214
181	0x3e411fb5	0.18859752
182	0xbe080c7c	-0.13286012
183	0xbde041d5	-0.109500565
184	0xbe02ee89	-0.12786306
185	0xbe86631c	-0.2624749
186	0x3e79128c	0.24323481
187	0xbe128fe7	-0.14312707
188	0x3ddf800e	0.10913096
189	0xbe635091	-0.22198702
190	0xc016fde5	-2.3592465
191	0x3e52e4f1	0.20595147
192	0x3b433c36	0.0029790527
193	0x3c1c4add	0.009539333
194	0x3f62cfd6	0.8859838
195	0x3d9355c1	0.07194091
196	0x3ef96a40	0.48713875
197	0xbe3e2896	-0.1857017
198	0x3e263d7d	0.16234393
199	0x3d679b40	0.056544542
200	0xbe90cb29	-0.2828
201	0xbf24b236	-0.6433443
202	0xbe5871c9	-0.21137156
203	0xbbbc5146	-0.0057469932
204	0xbc84cb4e	-0.016210224
205	0x3df13a02	0.11778642
206	0xbfcf0c18	-1.6175566
207	0x3cf685ae	0.03009304
208	0xbe914060	-0.28369427
209	0xbe7a1dd4	-0.24425441
210	0xbe746117	-0.23865162
211	0xbfe6fb02	-1.8045352
212	0x3e8150c7	0.2525694
213	0xbd31b81b	-0.043388467
214	0xbde49040	-0.11160326
215	0xbee3dfe7	-0.4450676
216	0xbe001afd	-0.12510295
217	0xbe143800	-0.14474487
218	0x3d8793fc	0.06620023
219	0x3d51ec48	0.051250726
220	0xbe61abe4	-0.22038227
221	0x3d889108	0.066682875
222	0x3f030066	0.5117248
223	0xbe4f8b66	-0.2026802
224	0x3f936e74	1.1518083
225	0x3d0ceedd	0.034407485
226	0xbcf52e17	-0.029929204
227	0xbec68750	-0.3877511
228	0x3df04c6c	0.11733326
229	0x3e767e75	0.24071677
230	0xbe84a28c	-0.25905263
231	0x3c204912	0.009783046
232	0xbe0826d0	-0.13296056
233	0x3cd5ffc1	0.02612293
234	0x3e2aacb9	0.16667451
235	0x3e3b03cb	0.18263166
236	0xbe218603	-0.15773778
237	0x3e3ad4d4	0.1824525
238	0xbf3e0894	-0.7423184
239	0xbe4151e2	-0.18878892
240	0x3ebe7dd7	0.37205383
241	0x3f94a55a	1.1612961
242	0x3edb58b5	0.42841116
243	0xbe738412	-0.2378085
244	0x3eeb1ace	0.45918888
245	0xbd647ff0	-0.055786073
246	0x3dba168c	0.09086332
247	0xbce737a7	-0.02822478
248	0xbe03570f	-0.12826179
249	0xbe566754	-0.20937854
250	0x3dc406af	0.09571587
251	0x3e866a6d	0.2625307
252	0x3de21ae2	0.11040284
253	0x3e76f51d	0.24116941
254	0xbe6e9b30	-0.23301387
255	0xbf8570e5	-1.0425078

onnx::Gemm_22 f4 [40, 40]
0	0x3edb0c66	0.42782897
1	0xbd4df8b2	-0.050286002
2	0xbe50fa14	-0.20407897
3	0x3ed81646	0.42204493
4	0xbe816875	-0.25275007
5	0x3f209414	0.6272595
6	0xbc69664b	-0.01424558
7	0xbdf40f3e	-0.1191697
8	0xbec1a26e	-0.37819237
9	0x3d171823	0.036888253
10	0xbf069106	-0.5256504
11	0xbf4fe7d9	-0.81213146
12	0xbf0dcc25	-0.55389625
13	0x3ef8aa81	0.48567584
14	0xbdc25b26	-0.094900414
15	0xbec0e32e	-0.37673324
16	0x3c3fe8ab	0.011713187
17	0x3e503cb9	0.20335664
18	0x3ee8de42	0.4548207
19	0x3d43e36c	0.04782431
20	0x3ed58fb8	0.4171121
21	0xbf0f61f2	-0.5600883
22	0x3e7fe1a6	0.24988422
23	0x3ee04517	0.4380271
24	0xbdc461bc	-0.09588954
25	0x3ec0b508	0.37638116
26	0xbe07713d	-0.1322679
27	0x3f3242d2	0.6963321
28	0x3f14d814	0.5814221
29	0x3e527969	0.20554127
30	0xbdcbbe4d	-0.09948406
31	0xbf0a619c	-0.5405519
32	0x3c5d5f2c	0.01351146
33	0x3eb6d566	0.35709685
34	0x3e03986d	0.12851115
35	0x3dabff7a	0.08398338
36	0x3e9427c6	0.28936595
37	0x3f6b2067	0.9184632
38	0x3e0790dd	0.13238855
39	0xbe34bddc	-0.1765055
40	0x3e001168	0.1250664
41	0x3dae6431	0.08515204
42	0xbfe223bf	-1.7667159
43	0xbcdc6312	-0.02690271
44	0xbe80ee6c	-0.251819
45	0x3f00b640	0.5027809
46	0x3edc5b6d	0.43038502
47	0x3e70d4b7	0.23518644
48	0x3ec41a2b	0.38301215
49	0x3ec10499	0.3769882
50	0xbf905f95	-1.1279169
51	0x3e8124b5	0.25223318
52	0x3e551bbb	0.2081136
53	0x3eab852c	0.3350004
54	0xbe5e202c	-0.2169196
55	0x3cec620d	0.028855348
56	0x3e9e36c8	0.3090117
57	0x3d86d5a5	0.06583718
58	0x3e542e02	0.20720676
59	0x3e985826	0.29754752
60	0x3f0dd642	0.55405056
61	0x3e979089	0.2960246
62	0x3ee0fe6d	0.4394411
63	0x3dce9658	0.100872695
64	0xc03977e1	-2.8979418
65	0x3d98b933	0.07457199
66	0x3e62c8a0	0.22146845
67	0xbd6ddc07	-0.058071163
68	0x3e5a6b5b	0.21330015
69	0x3ec4633d	0.38356963
70	0x3edd157a	0.43180448
71	0xc00da1fe	-2.2130122
72	0xbf171245	-0.5901225
73	0xbee494dd	-0.44644824
74	0xbf49a891	-0.78772837
75	0xbdb18fea	-0.086700276
76	0xbe565624	-0.20931298
77	0x3c3f75a0	0.011685759
78	0x3ed1db66	0.409877
79	0x3dc9e2c5	0.09857706
80	0x3e798d85	0.24370392
81	0xbf601827	-0.87536854
82	0x3e563791	0.20919634
83	0xbe8cb4f8	-0.27481818
84	0xbe781878	-0.24228084
85	0xbdc1c750	-0.09461844
86	0x3f136a91	0.5758448
87	0xbeb8f77c	-0.36126316
88	0x3f3bbc49	0.73334175
89	0x3f7714a9	0.965159
90	0xbf46daa7	-0.77677387
91	0xbef6e6b3	-0.48222885
92	0xbf82637c	-1.018661
93	0xbf2275f3	-0.63461226
94	0xbe86bcde	-0.2631597
95	0xbf0f814a	-0.56056654
96	0xbe154f04	-0.14580923
97	0xbebafea6	-0.36522406
98	0x3f46fa2b	0.77725476
99	0x3f15e7dc	0.58556914
100	0x3f63a1dc	0.8891885
101	0xbfe0053a	-1.7501595
102	0x3ec9fa05	0.39448562
103	0xbe2305b9	-0.15920152
104	0x3f3c5a8d	0.7357567
105	0xbf202396	-0.625543
106	0xbf2b1039	-0.6682163
107	0xbe0f4d95	-0.13994439
108	0x3e85ecd4	0.26157248
109	0x3e0308ac	0.12796277
110	0xbe503038	-0.20330894
111	0x3eb229f6	0.3479764
112	0x3f9cc374	1.2247148
113	0xbd41fb1c	-0.047358617
114	0x3f56385f	0.83679765
115	0xbebe902f	-0.37219378
116	0xbe5cdcd2	-0.21568611
117	0x3b8c5c60	0.004283473
118	0x3bd7e020	0.006587997
119	0xbf36ed82	-0.7145616
120	0x3ed3b0fd	0.4134597
121	0xbf90ba54	-1.1306863
122	0x3de931ce	0.113864526
123	0xbe019da0	-0.12657785
124	0xbd1130ae	-0.035446815
125	0x3e069a8a	0.1314489
126	0x3e32e455	0.17469914
127	0xbf0a4db8	-0.5402484
128	0xbe2d1657	-0.16903053
129	0xbd84e84c	-0.064896196
130	0xbf060547	-0.523518
131	0xbf25a6f5	-0.6470788
132	0xbeca2635	-0.39482275
133	0x3aebf4ba	0.0018002011
134	0xbe013c78	-0.12620723
135	0xbeeda41f	-0.46414277
136	0x3e7935b3	0.24336891
137	0xbdfec293	-0.12439456
138	0x3ea2c7ca	0.31793052
139	0x3e8c77a2	0.27435023
140	0x3f200c8b	0.6251914
141	0xbf6439a4	-0.8915045
142	0x3f2a4d29	0.6652399
143	0x3f2af48b	0.6677939
144	0x3e6b469e	0.22976157
145	0xbe502bff	-0.20329283
146	0xbf30b220	-0.690218
147	0xbe848252	-0.25880677
148	0x3e834bcd	0.2564377
149	0x3ea0ea0c	0.31428564
150	0xbed65ff8	-0.41870093
151	0x3db4ea6d	0.08833776
152	0x3f5f7283	0.87284106
153	0x3e54cd4f	0.20781444
154	0x3eba0781	0.3633385
155	0x3f3020ad	0.6879986
156	0xbf10131b	-0.5627915
157	0xbe15d34c	-0.14631385
158	0xbdb1e12c	-0.08685526
159	0xbecbe0ab	-0.39819846
160	0x3e03af07	0.12859736
161	0xbe8e910a	-0.2784503
162	0xbf64fb9c	-0.89446425
163	0x3e8a85a6	0.2705509
164	0x3d9908d8	0.0747239
165	0x3e503c7a	0.2033557
166	0xbf0a429b	-0.5400788
167	0x3ea95180	0.33069992
168	0xbe215509	-0.15755095
169	0xbe4f447e	-0.20240971
170	0x3efa1e22	0.48851115
171	0x3ed4dcb0	0.4157462
172	0x3f1a3ec6	0.60252035
173	0x3d856b7a	0.0651464
174	0xbd423ef5	-0.04742332
175	0x3ea7c5ac	0.32768
176	0x3eb65c96	0.35617512
177	0x3e8fbe09	0.28074673
178	0xbe85f15a	-0.261607
179	0xbdb17cfd	-0.08666418
180	0xbf64f519	-0.8943649
181	0x3e9d8170	0.30762815
182	0xbe89104f	-0.26770255
183	0x3dff9f42	0.12481548
184	0xbfb9fc71	-1.4530164
185	0x3e3e8cca	0.18608394
186	0xbdf6ec02	-0.12056734
187	0xbbe98fcf	-0.007127739
188	0xbcfa1c73	-0.030531144
189	0xbe2495ab	-0.16072719
190	0x3e8526ca	0.26006156
191	0xbf8a0b17	-1.0784634
192	0xbf9afda1	-1.2108651
193	0x3e9b0aae	0.30281585
194	0x3f529f52	0.82274354
195	0x3e3447e2	0.17605546
196	0xbf9709e0	-1.1799889
197	0x3eedbfb2	0.46435314
198	0x3e232e46	0.1593562
199	0x3e21e7e1	0.15811111
200	0x00000000	0.0
201	0x80000000	-0.0
202	0x00000000	0.0
203	0x00000000	0.0
204	0x80000000	-0.0
205	0x00000000	0.0
206	0x00000000	0.0
207	0x80000000	-0.0
208	0x00000000	0.0
209	0x00000000	0.0
210	0x80000000	-0.0
211	0x80000000	-0.0
212	0x80000000	-0.0
213	0x80000000	-0.0
214	0x80000000	-0.0
215	0x00000000	0.0
216	0x00000000	0.0
217	0x80000000	-0.0
218	0x00000000	0.0
219	0x00000000	0.0
220	0x00000000	0.0
221	0x80000000	-0.0
222	0x00000000	0.0
223	0x00000000	0.0
224	0x00000000	0.0
225	0x80000000	-0.0
226	0x80000000	-0.0
227	0x00000000	0.0
228	0x00000000	0.0
229	0x80000000	-0.0
230	0x80000000	-0.0
231	0x00000000	0.0
232	0x00000000	0.0
233	0x80000000	-0.0
234	0x80000000	-0.0
235	0x80000000	-0.0
236	0x00000000	0.0
237	0x00000000	0.0
238	0x00000000	0.0
239	0x80000000	-0.0
240	0x3e6b023d	0.22950073
241	0xbd62625c	-0.055269584
242	0x3f2b1041	0.66821676
243	0xbe0fb06b	-0.14032142
244	0xbdaa0727	-0.083021455
245	0x3e65617d	0.2240047
246	0xbe3863ec	-0.18006867
247	0x3e1bd127	0.15216504
248	0x3deacdb4	0.11465016
249	0x3e674494	0.22584754
250	0x3e25d2f4	0.16193753
251	0x3f73cbc8	0.9523282
252	0x3ef2984c	0.47381818
253	0xbf149d20	-0.58052254
254	0xbea68f6f	-0.32531306
255	0xbec0cb14	-0.37654936
