resources/small_onnx_tests/individual_nodes/convT.onnx (onnx, 440 bytes, 1 tensors)

convT.weight f4 [3, 1, 3, 3]
0.2383276 -0.122299 -0.07025282 0.096053645 0.15483531 0.016089639 0.06601517 0.08115586
-0.3299259 0.199898 0.1778613 -0.2921481 0.04499924 -0.1681246 -0.16417512 -0.025136312
-0.21593603 0.0426391 0.2839081 -0.05246651 -0.117872715 0.07596751 0.21064417 0.19801268
-0.2589998 0.1939275 0.31302
00000000: 260c 743e e677 fabd b6e0 8fbd c6b7 c43d
00000010: 268d 1e3e 6bce 833c f632 873d 0b35 a63d
00000020: 0cec a8be 10b2 4c3e 4621 363e 7094 95be
00000030: 2051 383d db28 2cbe 861d 28be abea cdbc
00000040: 561e 5dbe 56a6 2e3d 675c 913e 20e7 56bd
00000050: 4067 f1bd db94 9b3d 1bb3 573e d6c3 4a3e
00000060: 9f9b 84be ee94 463e 2844 a03e
