resources/small_onnx_tests/individual_nodes/conv.onnx (onnx, 425 bytes, 2 tensors)

conv.weight f4 [3, 1, 3, 3]
0.092070185 0.25149077 -0.25497663 -0.065964304 0.3083044 -0.16084278 -0.19602899 0.2286114
-0.29221833 0.25258666 0.19212851 0.040974937 -0.24081802 0.11395764 -0.16162169 0.1343147
0.008563995 0.28673625 0.2969216 -0.23929965 -0.19714117 -0.10595386 0.3167402 -0.08579119
-0.29097924 -0.060566902 0.32194686
00000000: 4b8f bc3d 66c3 803e 4c8c 82be 4b18 87bd
00000010: 13da 9d3e f8b3 24be d3bb 48be 1b19 6a3e
00000020: a49d 95be 0a53 813e 56bd 443e 56d5 273d
00000030: 0099 76be a062 e93d 2880 25be cb89 093e
00000040: 0050 0c3c 18cf 923e 1c06 983e f80a 75be
00000050: 60df 49be 56fe d8bd c62b a23e 4bb3 afbd
00000060: 3bfb 94be 0015 78bd 38d6 a43e

conv.bias f4 [3]
-0.02913193 0.019867182 -0.016269406
00000000: 16a6 eebc 80c0 a23c 6b47 85bc
