resources/small_onnx_tests/individual_nodes/linear.onnx (onnx, 449 bytes, 2 tensors)

fc.weight f4 [5, 10]
00000000: 96e9 133e b42c 77bc a3ce 853e f72c 96be
00000010: 457b 66be 564e 0ebe 13ff 37be ca9d a9bc
00000020: 5d8c 44be 5d03 0bbe e421 9a3d ce77 3a3d
00000030: 0e3d 97be 569c b1bc c09c 0f3e 48bf 453e
00000040: a7c8 b23d a972 883e e848 613e 5ab0 92be
00000050: 000c 3dbe e22b 61be 82c4 c3bd 2c89 af3d
00000060: 128b 243e dd6b 9dbe 7423 7cbe b0cf 7fbd
00000070: a965 383e 47b2 06be 2f94 63bd 7ee6 ebbd
00000080: 1dfd f73d fc4d 903e f8f9 5ebe c14e cdbd
00000090: 0719 62bd 430d cebd 79e0 c33d 1863 da3d
000000a0: a1e4 963e 73e1 983e 19c8 573e fa88 b6bc
000000b0: c989 e3bc 8f19 903e 60b4 343e c881 9d3e
000000c0: 05a0 3fbd 7be5 2c3e
0.14444575 -0.015086342 0.26134214 -0.2933118 -0.22507961 -0.1389707 -0.17968397 -0.020705123
-0.1919417 -0.13575502 0.075259954 0.04552441 -0.2953877 -0.021680992 0.14024639 0.1931125
0.08729678 0.2664998 0.22000468 -0.2865017 -0.18461609 -0.21989396 -0.09558965 0.08571085
0.16068676 -0.30746356 -0.246229 -0.062453926 0.1800753 -0.13153945 -0.05556124 -0.11518572
0.121088244 0.28184497 -0.21775043 -0.10024787 -0.05519965 -0.10061123 0.09564299 0.10663432
0.29471305 0.29859504 0.21072425 -0.022282112 -0.027775662 0.281445 0.17646933 0.30763078
-0.046783466 0.16884415

fc.bias f4 [5]
00000000: c71f 8ebe facd 6fbe 69cc 8f3e 678a 4d3b
00000010: 957c 9cbe
-0.2775862 -0.23418418 0.2808564 0.0031363012 -0.305638
