resources/small_onnx_tests/individual_nodes/lstm_2_layer_simple.onnx (onnx, 2222 bytes, 7 tensors)

onnx::LSTM_220 f4 [1, 8, 3]
00000000: 331b 5b3e 1af7 823e 99f4 27bf ef87 32be
00000010: cda0 323f 3896 0a3e 61d0 863e df66 6ebe
00000020: a211 27bf 6eba 143d 5ee9 f23e b88c e23c
00000030: 2b5e 97be 81d3 933e 4547 f9be 6d55 0bbf
00000040: ded6 a53d 1a2b 843e 3f30 063f 1bf4 ff3e
00000050: a79c 0d3f 28a8 f0be 75c7 c4be fe51 bfbe
0.21397094 0.2557915 -0.656076 -0.17434667 0.6977661 0.13533866 0.26330855 -0.2328143
-0.6526128 0.036310606 0.4744367 0.02765499 -0.29564032 0.28872302 -0.48687187 -0.54427224
0.08097623 0.25814134 0.5241737 0.49990925 0.5531716 -0.47003293 -0.38433424 -0.37367243

onnx::LSTM_221 f4 [1, 8, 2]
00000000: fb48 193d cb3b 74bb d719 09bf 9873 a13e
00000010: 3e24 d63e 81f5 8e3d a33b 853e f7e5 28bf
00000020: 0749 053f dce7 efbe 52ed 18bf 99df 183f
00000030: a35b 9c3d 1d89 ce3e 4c44 273f ddb2 723e
0.037423115 -0.0037267085 -0.53555053 0.31533504 0.41824526 0.0698042 0.26022062 -0.659759
0.52064556 -0.46856582 -0.5973712 0.5971618 0.07634666 0.40338984 0.6533859 0.23701043

onnx::LSTM_222 f4 [1, 16]
00000000: b566 bbbe f2ad 143f 532f 2a3e 9bcb 12bf
00000010: e861 273f f9ed 32bf ad70 29bf f242 2fbf
00000020: 1b2a 8fbe 6139 7ebe 2434 863e 9447 0e3f
00000030: fc50 ea3e 39ba 59be 9465 2c3f 2fc4 12be
-0.36601797 0.5807792 0.16619615 -0.5734193 0.6538377 -0.6989437 -0.66187555 -0.68461525
-0.2796181 -0.24826576 0.26211655 0.5557797 0.4576491 -0.21262445 0.67342496 -0.1433265

onnx::LSTM_244 f4 [1, 8, 2]
00000000: 97ea 623e a709 19bf 32ec 31bf 0c51 bcbe
00000010: 2729 11bf 9e7e e3be ccb9 063f c27d fe3e
00000020: d9a5 8bbe 78d9 8f3e 4df0 90be b2c0 2f3e
00000030: d349 98be 3a63 8dbe 6b2b e6be 8da0 febe
0.22159801 -0.59780353 -0.6950103 -0.36780584 -0.5670342 -0.4443254 0.52627254 0.4970532
-0.2727497 0.28095603 -0.28308335 0.17163351 -0.29743823 -0.27614766 -0.44955 -0.49731866

onnx::LSTM_245 f4 [1, 8, 2]
00000000: 9087 2a3f d760 f6be a009 a43e 3c96 cdbe
00000010: f67a b03e b0b4 f83e 0687 ff3d 75a2 573e
00000020: 4220 253e 9552 9fbd 0116 98bd 77d3 573e
00000030: 8f62 f7bd e6d5 203e bb25 11bf 7a32 1abf
0.666131 -0.48120758 0.32038593 -0.40153682 0.34468812 0.48575354 0.124769256 0.21058066
0.16125587 -0.07779423 -0.07426072 0.21076761 -0.120793454 0.15706596 -0.566982 -0.6023327

onnx::LSTM_246 f4 [1, 16]
00000000: 8857 cd3e fa78 f9be 9032 1b3f 4bb2 003e
00000010: 0eff d53d 6c6e 133f 6ae3 263f aa38 be3e
00000020: faf5 99be f139 2cbf e2f2 6dbe 3db0 9d3e
00000030: 6fd7 5d3e cfbc 22bf 4426 2f3f 6d75 f63e
0.40105844 -0.4872511 0.6062403 0.12568013 0.104490384 0.57590365 0.65190756 0.37152606
-0.30070478 -0.6727591 -0.23237184 0.30798522 0.21664213 -0.6356935 0.68417764 0.48136464

/lstm/Expand_output_0 f4 [1, 1, 2]
00000000: 0000 0000 0000 0000
0.0 0.0
