resources/small_onnx_tests/individual_nodes/lstm_simple.onnx (onnx, 1138 bytes, 4 tensors)

onnx::LSTM_112 f4 [1, 8, 3]
00000000: a957 01bf 8de0 f43b 749b 783e 9f98 01bf
00000010: 6d4c e73e 0377 033e 54eb 25bf b517 bebd
00000020: f94e 09bf 6981 833e 6acf 59be 2773 b6be
00000030: f257 0f3e 9901 043f b50e 0dbf 5a6d 203f
00000040: fb3f 2bbe 541a 063f c67a 02bf cda6 c8bd
00000050: cb9b 07bf 54ae 1fbf 1cce cebe e78b f3be
-0.50524384 0.0074730576 0.2427805 -0.50623506 0.45175496 0.12838368 -0.6481221 -0.092818655
-0.5363613 0.2568467 -0.21270528 -0.3563473 0.13998392 0.5156494 -0.55100566 0.6266686
-0.16723625 0.52383924 -0.5096859 -0.0979744 -0.52972096 -0.6237538 -0.40391624 -0.47567675

onnx::LSTM_113 f4 [1, 8, 2]
00000000: 3549 123f c31b ecbe 76ed bebe 022d 29bf
00000010: d8ce 08bf fb32 11bf 2667 35bd 1f3d 233f
00000020: 3068 1dbf f3e1 123e ad98 c23e 2611 26bf
00000030: 670e 4fbd dca6 efbe 1e72 2bbc 3ec6 d9be
0.57142955 -0.4611493 -0.37290543 -0.660843 -0.5344062 -0.56718415 -0.044287823 0.6376514
-0.614871 0.14344005 0.38007107 -0.64869916 -0.050550845 -0.4680699 -0.010464219 -0.4253406

onnx::LSTM_114 f4 [1, 16]
00000000: 2749 e5be b25f 6d3d bb97 bf3e bdcd 07bf
00000010: a689 16be f630 233f 5696 21bf 21bf 0ebf
00000020: 64bb 253f 7c3a 1b3f 90c3 34bf c699 e3be
00000030: 434c 06be 9d0e 0e3f 0f80 c9be 2225 72be
-0.44782373 0.05795259 0.3742045 -0.53048307 -0.14700946 0.63746583 -0.6312002 -0.5576039
0.6473906 0.60636115 -0.70610905 -0.44453257 -0.13115029 0.5549105 -0.39355513 -0.23646978

/lstm/Expand_output_0 f4 [1, 1, 2]
00000000: 0000 0000 0000 0000
0.0 0.0
